experiments/gen_1/trained_models/pinn_v2_single_512/exports/pinn_v2_single_512.onnx (onnx, 16528 bytes, 5 tensors)

network.2.bias f4 [4]
0	0x3b907d3f	0.0044094617
1	0xbbab9774	-0.0052365605
2	0xbd18ae82	-0.0372758
3	0xbd4682ac	-0.048464462

input_mean f4 [6]
0	0xb9babe56	-0.00035618496
1	0xb76e02a7	-1.4186523e-05
2	0xb6ecfa81	-7.0625106e-06
3	0x34a2527f	3.0234875e-07
4	0xb20a1501	-8.037433e-09
5	0x00000000	0.0

input_std f4 [6]
0	0x432d33ef	173.20287
1	0x43105796	144.34213
2	0x3db15a5c	0.08659813
3	0x3db16137	0.086611204
4	0x3a210e39	0.0006143782
5	0x3f800000	1.0

output_mean f4 [4]
0	0xbd68bbf3	-0.056819867
1	0x3b1e293e	0.002413347
2	0xb6ecc5eb	-7.0563888e-06
3	0x34a3309d	3.0396487e-07

output_std f4 [4]
0	0x44328658	714.0991
1	0x4430f124	707.7678
2	0x3db15b67	0.08660012
3	0x3db16140	0.08661127
