experiments/gen_1/trained_models/mlp_v2_single_1024/exports/mlp_v2_single_1024.onnx (onnx, 1603 bytes, 5 tensors)

network.2.bias f4 [4]
00000000: 4a28 1b3b d2b0 513b bd0b ad3b 3876 4b3b
0.0023675137 0.0031996262 0.0052809403 0.0031045806

input_mean f4 [6]
00000000: 6cba 2d3c 3701 d3bc 490a 92b5 5cca f5b5
00000010: ef03 b3b2 0000 fa45
0.0106035285 -0.025757415 -1.0880841e-06 -1.8312817e-06 -2.0840131e-08 8000.0

input_std f4 [6]
00000000: 4233 2d43 e556 1043 4f60 b13d 3162 b13d
00000010: 890f 213a 77cc 2b32
173.20023 144.33943 0.086609475 0.08661307 0.00061439775 1e-08

output_mean f4 [4]
00000000: 4400 043b 5d88 25bd 5b86 8fb5 fff4 f5b5
0.002014176 -0.04041325 -1.0693433e-06 -1.8325226e-06

output_std f4 [4]
00000000: 2d8c 3244 bdf0 3044 5f61 b13d 3a62 b13d
714.19025 707.76154 0.0866115 0.08661313
