experiments/next_generation/trained_models/pinn_v2_shallow_512/exports/pinn_v2_shallow_512.onnx (onnx, 20784 bytes, 5 tensors)

network.4.bias f4 [4]
0	0x3a98a49a	0.0011645735
1	0xbb06750f	-0.002051655
2	0x3db4f1f8	0.088352144
3	0xbc1773d3	-0.009243923

input_mean f4 [6]
0	0xbaff2d94	-0.0019468539
1	0xbc1ba773	-0.009500372
2	0xb5feb157	-1.8976087e-06
3	0xb72e041e	-1.0372167e-05
4	0xb3578137	-5.017611e-08
5	0x00000000	0.0

input_std f4 [6]
0	0x432d324a	173.19644
1	0x43105816	144.34409
2	0x3db15efc	0.08660695
3	0x3db15fc6	0.086608455
4	0x3a210e2c	0.00061437744
5	0x3f800000	1.0

output_mean f4 [4]
0	0xbc89dab5	-0.01682792
1	0xbdbd5ce5	-0.09246234
2	0xb5f8354f	-1.8492955e-06
3	0xb72df79b	-1.0369254e-05

output_std f4 [4]
0	0x44328b83	714.1799
1	0x4430ee79	707.72614
2	0x3db16006	0.08660893
3	0x3db15fcf	0.08660852
