experiments/next_generation/trained_models/mlp_balanced_v1/exports/mlp_balanced_v1.onnx (onnx, 2752 bytes, 5 tensors)

network.6.bias f4 [4]
0.0007725734 0.0025752506 0.06440548 -0.075562894
00000000: 8686 4a3a 89c5 283b 05e7 833d b8c0 9abd

input_mean f4 [6]
-0.028491147 -0.027411366 -1.2806365e-05 -1.7755901e-06 2.2206008e-10 8000.0
00000000: 4466 e9bc cd8d e0bc ebda 56b7 d050 eeb5
00000010: 5b28 742f 0000 fa45

input_std f4 [6]
173.20523 144.34283 0.08660401 0.086606026 0.0006144068 1e-08
00000000: 8a34 2d43 c457 1043 715d b13d 805e b13d
00000010: 2410 213a 77cc 2b32

output_mean f4 [4]
-0.13094603 -0.041604497 -1.28068e-05 -1.773471e-06
00000000: b716 06be 7a69 2abd cadc 56b7 0008 eeb5

output_std f4 [4]
714.1391 707.7008 0.08660601 0.08660609
00000000: e788 3244 daec 3044 7e5e b13d 895e b13d
