experiments/next_generation/trained_models/pinn_v2_shallow_1024_512/exports/pinn_v2_shallow_1024_512.onnx (onnx, 20809 bytes, 5 tensors)

network.4.bias f4 [4]
0.0014934286 -0.0030435652 -0.118928604 -0.017280137
00000000: 26bf c33a 8d76 47bb d790 f3bd 138f 8dbc

input_mean f4 [6]
0.009269379 0.0023863313 -1.9926327e-05 2.3137295e-06 5.578457e-08 0.0
00000000: 98de 173c ff63 1c3b 7627 a7b7 9245 1b36
00000010: c997 6f33 0000 0000

input_std f4 [6]
173.19572 144.34158 0.08660316 0.08660935 0.0006143975 1.0
00000000: 1b32 2d43 7257 1043 ff5c b13d 3e60 b13d
00000010: 850f 213a 0000 803f

output_mean f4 [4]
-0.15047985 0.020916238 -1.998038e-05 2.3173613e-06
00000000: 6417 1abe 8858 ab3c 8a9b a7b7 f783 1b36

output_std f4 [4]
714.1161 707.7307 0.08660509 0.08660941
00000000: 6e87 3244 c4ee 3044 025e b13d 4660 b13d
