experiments/next_generation/trained_models/mlp_v2_shallow_1024_512/exports/mlp_v2_shallow_1024_512.onnx (onnx, 2222 bytes, 5 tensors)

network.4.bias f4 [4]
0	0x3af2f072	0.0018534793
1	0xba16fff8	-0.0005760188
2	0x3d9f0e0a	0.077663496
3	0x3e061d12	0.13097027

input_mean f4 [6]
0	0xbca625ee	-0.020281758
1	0xbb646472	-0.003484991
2	0xb69c4be9	-4.6579994e-06
3	0x364a8a6b	3.0180915e-06
4	0xb366fd0e	-5.37812e-08
5	0x45fa0000	8000.0

input_std f4 [6]
0	0x432d3086	173.18954
1	0x43105763	144.34135
2	0x3db15c3d	0.08660171
3	0x3db15dcb	0.08660468
4	0x3a210b7b	0.00061433733
5	0x322bcc77	1e-08

output_mean f4 [4]
0	0xbd6a69eb	-0.057229917
1	0x3ca974fc	0.020685665
2	0xb69a9782	-4.6071955e-06
3	0x364adb8d	3.022814e-06

output_std f4 [4]
0	0x44328846	714.1293
1	0x4430edd6	707.7162
2	0x3db15d50	0.08660376
3	0x3db15dd4	0.086604744
