legacy/old_python_scripts/ml_models/data/X_weighted_train.npy (npy, 720128 bytes, 1 tensors)

array f8 [15000, 6]
-225.82778607474756 676.0714596148744 0.13919636508684308 0.0493292420985183 -0.0002715807692419638 4000.0 -720.0451515275948 -61.12666205119922
-0.0997748333165869 -0.1785665910390296 -3.918591685247897e-05 4000.0 845.8377338915898 498.6639612006327 -0.1725965335930343 -0.1590875163964497
0.00024398955977643594 4000.0 200.97568887890566 -739.4005421704239 -0.28616254497515053 0.012387330129194574 0.00010462084116458529 4000.0
-374.1396326366073 -200.4572350594624 -0.026358009469778454 0.1425879806965068 -0.00022894451211933044 4000.0 869.8155944522186 -49.85566012803008
0.21596424404179232 0.09015376929388985 8.581936332315895e-05 4000.0 807.9939670559997 698.448049611839 0.18503840886987666 -0.09769311541331466
0.0003412149195769542 4000.0 -466.1541611531789 274.8952782381873 0.06599799466957257 0.16659745586808217 -0.00025376320935479154 4000.0
-434.19603311996957 243.78342653097297 -0.11297335434635342 0.010034010588905407 5.8901402877451456e-05 4000.0 -843.6360735799946 513.4271618924977
-0.03014751997814058 -0.05242488199909279 -1.332307237439428e-05 4000.0 759.3736230416102 -617.2612469221208 -0.18241028254851288 -0.22738635554473097
0.00014003723620151465 4000.0 445.1761982472856 59.538198583619646 0.05205069939830892 0.232627653632069 -4.651971291380785e-05 4000.0
-646.3363950454273 453.29547113105946 -0.2552696137921375 0.24344346830025865 2.4375262720728337e-05 4000.0 -371.72128550753143 -728.8802659273733
-0.1806945575467169 0.10567097637432499 -2.27240356958556e-05 4000.0 -766.7196268786373 -212.3014071835911 -0.23047856428492217 0.18155171293779676
4.365210418791784e-05 4000.0 -728.2617903172596 -193.77262170260042 0.10130475159816438 0.08296117830874833 4.947351865964513e-05 4000.0
696.9829366373879 -41.67761225707602 -0.228243452437019 0.1066223936114975 2.5492887356149255e-05 4000.0 -475.22714445187967 -365.89751585801406
-0.2757398462769412 0.1053314448428937 0.00032401851405845295 4000.0 -705.795431412052 -702.8562214698986 0.08184624675826824 -0.09282200946183666
6.837914323735232e-05 4000.0 -649.2033820694237 156.6260689167259 0.023904654781003898 -0.1484693876326153 -1.2505183516219646e-05 4000.0
-378.4473847552175 -508.16806911899334 0.2578185914055438 0.15406018978220848 4.196005235355448e-05 4000.0 -78.23777313076152 -422.3393441747496
-0.05009403127778028 0.19164012945943415 -0.00014057805899802877 4000.0 712.9643398622877 -272.99478754220416 -0.23396884528339396 -0.13603241872902916
9.40430450500982e-05 4000.0 -265.3760585984958 -292.82811276295644 -0.20120648811423497 0.017044709687720982 -7.503405647058321e-05 4000.0
-684.2423387993709 -243.57724289455808 0.2657458223475115 -0.08839853398962239 -6.56992330010754e-05 4000.0 -173.09489209552657 -652.6616293365277
-0.14765075163939317 -0.1265619685806994 -3.280725776693842e-05 4000.0 -358.4190423298146 -322.73925843379857 -0.2778678315872803 0.05478216698994842
6.997347174891896e-05 4000.0 -840.5086807790129 -232.39312795997557 0.08061080682081828 0.0903527257773834 6.265100947292695e-05 4000.0
874.1708173990812 -386.9170927327494 0.10328132844352711 0.1308098076643588 -0.00019734718921559838 4000.0 545.6515614838127 -44.549048330942355
0.2900538845369058 -0.05058777877772347 2.0505801129167966e-05 4000.0 603.5444920606283 -268.82990254239627 -0.18808889376008747 -0.22961242922261804
-4.9551934972645645e-05 4000.0 -503.56611438201304 316.7242986570268 0.18570062768382922 -0.07566700635413531 -0.00034321710906862603 4000.0
343.6879285844386 -169.89698054919393 0.26203799324204075 -0.18123952792700337 -0.00013167656975531642 4000.0 -523.6710826721153 62.1719607413487
0.11747063960704929 -0.13572498910135017 0.0002521894015628607 4000.0 99.36146087903217 44.475867534009694 -0.15488862545972898 -0.2034486160970504
-1.4949523291560015e-05 4000.0 688.7454177408115 -466.9393374879309 -0.13267718844469087 0.10017891498638565 1.821873084541938e-05 4000.0
696.7555636772111 419.81331878643573 0.08521898769257263 -0.20793001750247558 0.0002656853863121822 4000.0 304.1788584856115 121.029932154682
-0.07663034006295413 0.2200667212288892 1.108522088649638e-05 4000.0 -610.5455074485023 73.10068404987919 0.11513711861561593 0.07598062975130027
-0.00020794245866614846 4000.0 -867.4643454920624 -9.15942722484806 -0.1927063744672027 -0.06676560770857004 -2.7204867031141113e-05 4000.0
283.703206140618 102.46290500320742 -0.2437951393031445 -0.06614209847028324 0.00017717365174961346 4000.0 161.76752560897899 718.3392874125136
-0.007954708224326923 0.203049393859277 -9.140017079540274e-05 4000.0 4.746767589345836 115.3558269395387 -0.004489383708681682 -0.15237850610097775
00000000: 00e4 3839 7d3a 6cc0 f626 6b59 9220 8540
00000010: 9091 e2bd 2fd1 c13f 8065 19b3 ae41 a93f
00000020: 9d71 a985 5ecc 31bf 0000 0000 0040 af40
00000030: 1373 6778 5c80 86c0 c0c5 4b76 3690 4ec0
00000040: e2ff 0eee d78a b9bf 0cde 5522 45db c6bf
00000050: 6d7f cbd9 718b 04bf 0000 0000 0040 af40
00000060: 0899 d3ad b36e 8a40 7ca8 c795 9f2a 7f40
00000070: a5af 97a9 a417 c6bf 64f3 0fd0 fa5c c4bf
00000080: 586e 0f5c eefa 2f3f 0000 0000 0040 af40
00000090: 103f e2d7 381f 6940 1e15 744f 341b 87c0
000000a0: a389 00b5 7c50 d2bf 0032 514e 875e 893f
000000b0: e800 795d fc6c 1b3f 0000 0000 0040 af40
000000c0: ec7a 6eef 3b62 77c0 385f 6bab a10e 69c0
000000d0: 9034 a412 98fd 9abf 5c74 f2ac 5240 c23f
000000e0: 5fa4 6162 1a02 2ebf 0000 0000 0040 af40
000000f0: a058 6256 862e 8b40 b030 6545 86ed 48c0
00000100: f6e6 a162 b7a4 cb3f 8077 ba42 5114 b73f
00000110: 85d6 726f 3d7f 163f 0000 0000 0040 af40
00000120: 90f6 ffa4 f33f 8940 acee 089b 95d3 8540
00000130: b0cc 4cad 56af c73f 2c9a be7f 6a02 b9bf
00000140: 6540 a5eb a25c 363f 0000 0000 0040 af40
00000150: 7973 af71 7722 7dc0 5c1d 460f 532e 7140
00000160: f017 b59c 3ee5 b03f 7c6d 46c0 1053 c53f
00000170: 4929 63af 70a1 30bf 0000 0000 0040 af40
00000180: 3cf3 9ff3 2223 7bc0 202b 84d4 1179 6e40
00000190: 84ac 3c5e d2eb bcbf 00d5 9d1a b68c 843f
000001a0: b33e d9ca 9ce1 0e3f 0000 0000 0040 af40
000001b0: 69bf bead 165d 8ac0 00b3 dad3 6a0b 8040
000001c0: a04c 72d1 fdde 9ebf 1093 5d23 6fd7 aabf
000001d0: 2481 c91f c5f0 ebbe 0000 0000 0040 af40
000001e0: fcc5 132e fdba 8740 8455 a008 174a 83c0
000001f0: 6cff ff5a 3859 c7bf 0c85 4f00 ff1a cdbf
00000200: 56e4 0cb3 de5a 223f 0000 0000 0040 af40
00000210: 44db 40b5 d1d2 7b40 30b3 f1b0 e3c4 4d40
00000220: b8a0 4ca7 63a6 aa3f 965a 3f32 bec6 cd3f
00000230: f500 282a c563 08bf 0000 0000 0040 af40
00000240: 2cb5 e2ef b032 84c0 00cd ef3f ba54 7c40
00000250: 0396 b95c 5656 d0bf 5020 63d3 2729 cf3f
00000260: 4d21 aa4c 2f8f f93e 0000 0000 0040 af40
00000270: d21e ac62 8a3b 77c0 d0ce dcc8 0ac7 86c0
00000280: 373a 9dcf ff20 c7bf 6803 aacb 400d bb3f
00000290: 8a35 a4d7 efd3 f7be 0000 0000 0040 af40
000002a0: 8fa8 bccb c1f5 87c0 b489 ad20 a589 6ac0
000002b0: f331 0454 5280 cdbf 06e1 cc26 163d c73f
000002c0: 8b52 0de1 e2e2 063f 0000 0000 0040 af40
000002d0: 5198 8525 18c2 86c0 281b 2651 b938 68c0
000002e0: 1c24 0bb3 1bef b93f 8477 ac9b f13c b53f
000002f0: 7e24 4428 39f0 093f 0000 0000 0040 af40
00000300: f83c e20d ddc7 8540 50c1 99ff bbd6 44c0
00000310: d21e dfd9 1437 cdbf a826 95ed 9a4b bb3f
00000320: 77c0 2de1 31bb fa3e 0000 0000 0040 af40
00000330: a884 3862 a2b3 7dc0 fd9c 9639 5cde 76c0
00000340: 79aa 7dbd b8a5 d1bf 4035 d766 00f7 ba3f
00000350: a66c d2eb 203c 353f 0000 0000 0040 af40
00000360: cce7 240b 5d0e 86c0 c85a a48a d9f6 85c0
00000370: 288a 2029 e0f3 b43f c4d2 fce6 2ec3 b7bf
00000380: d6e9 58bc d8ec 113f 0000 0000 0040 af40
00000390: 2446 c786 a049 84c0 284c aec1 0894 6340
000003a0: 60bd 063a 767a 983f e06b 2b7e 0b01 c3bf
000003b0: 64b1 df55 ab39 eabe 0000 0000 0040 af40
000003c0: 36c6 ea7c 28a7 77c0 b498 3e69 b0c2 7fc0
000003d0: 65ce 988c 1980 d03f 3075 5d8a 3eb8 c33f
000003e0: 0df5 b76b c8ff 053f 0000 0000 0040 af40
000003f0: 401f cbac 378f 53c0 344a 28f4 6d65 7ac0
00000400: 2830 20c4 eca5 a9bf aa92 50ec a987 c83f
00000410: aeff f454 046d 22bf 0000 0000 0040 af40
00000420: 0a56 d1f7 b647 8640 c383 57a6 ea0f 71c0
00000430: 3235 63ed b0f2 cdbf d887 d1a2 8269 c1bf
00000440: 2d1a 2d36 1fa7 183f 0000 0000 0040 af40
00000450: b45e 0556 0496 70c0 c524 2bf3 3f4d 72c0
00000460: 96c9 185b 22c1 c9bf a0dc b61a 2b74 913f
00000470: fb40 4646 73ab 13bf 0000 0000 0040 af40
00000480: cd0e 534f f061 85c0 363f 17c6 7872 6ec0
00000490: fbfe 01c4 fa01 d13f 18f1 7f4c 49a1 b6bf
000004a0: eb8a 7b3a 0039 11bf 0000 0000 0040 af40
000004b0: f0dd 255b 09a3 65c0 af53 5204 4b65 84c0
000004c0: 86b0 c246 38e6 c2bf 9259 fcbd 2e33 c0bf
000004d0: a81d 1fcb 5033 01bf 0000 0000 0040 af40
000004e0: 18e3 ba65 b466 76c0 50c7 a600 d42b 74c0
000004f0: 8dc7 5128 96c8 d1bf 006e 407f 680c ac3f
00000500: 1690 4b17 d757 123f 0000 0000 0040 af40
00000510: b76f 3ac7 1144 8ac0 a067 1681 940c 6dc0
00000520: 04e5 ffea e8a2 b43f 487d 5132 5b21 b73f
00000530: 312a a125 706c 103f 0000 0000 0040 af40
00000540: 2235 83d5 5d51 8b40 ede8 6d69 ac2e 78c0
00000550: 68cf f327 a570 ba3f 640d f532 60be c03f
00000560: 7abf 8072 dfdd 29bf 0000 0000 0040 af40
00000570: 7802 de65 360d 8140 10a9 3837 4746 46c0
00000580: 377b 0a2b 3e90 d23f 10ef da2e a4e6 a9bf
00000590: 1d41 74ec 7b80 f53e 0000 0000 0040 af40
000005a0: a44a a71e 5bdc 8240 5967 e347 47cd 70c0
000005b0: d65e b8ff 4b13 c8bf c814 22a9 f063 cdbf
000005c0: a125 7385 bffa 09bf 0000 0000 0040 af40
000005d0: a948 f4cd 0e79 7fc0 7847 30ba 96cb 7340
000005e0: 04d6 5fc5 09c5 c73f 4c5f adb5 e95e b3bf
000005f0: 4aca 4542 3a7e 36bf 0000 0000 0040 af40
00000600: 5c42 67c1 017b 7540 f47d 8d10 b43c 65c0
00000610: 9d2d d200 3bc5 d03f c82f 985a db32 c7bf
00000620: fb6e 1a1f 5542 21bf 0000 0000 0040 af40
00000630: 2e8d 9760 5e5d 80c0 f024 40cf 0216 4f40
00000640: 103c 5a4b 8e12 be3f 4a5a b8ba 6f5f c1bf
00000650: 9b94 6b3b 0987 303f 0000 0000 0040 af40
00000660: 808e cf2c 22d7 5840 60e6 333a e93c 4640
00000670: 5e9b 6ff6 63d3 c3bf 3ad2 46b0 9a0a cabf
00000680: f478 0ad6 f659 efbe 0000 0000 0040 af40
00000690: 2695 939d f685 8540 1fe9 be86 072f 7dc0
000006a0: 57c8 a5ec 90fb c0bf b083 9d4b 53a5 b93f
000006b0: 1698 86a6 8d1a f33e 0000 0000 0040 af40
000006c0: 561d f864 0bc6 8540 6c4f 8f5a 033d 7a40
000006d0: 9048 235d e9d0 b53f ced1 8368 739d cabf
000006e0: 4895 940b 7669 313f 0000 0000 0040 af40
000006f0: 0425 b79a dc02 7340 505d 8e68 ea41 5e40
00000700: aaa5 73c4 0b9e b3bf 02da 4e75 252b cc3f
00000710: 4e7d 5b28 553f e73e 0000 0000 0040 af40
00000720: 5658 0233 5d14 83c0 705d 839b 7146 5240
00000730: 887e 024f a079 bd3f 384c e96f 7773 b33f
00000740: df6b 6c1e 6441 2bbf 0000 0000 0040 af40
00000750: a0f3 c4fa b61b 8bc0 00a1 f971 a051 22c0
00000760: 6b9f 083c 9aaa c8bf 8c1a 9b05 8d17 b1bf
00000770: 6b1c 203a c086 fcbe 0000 0000 0040 af40
00000780: d004 1555 40bb 7140 907b 4e3c a09d 5940
00000790: de89 1ddb ad34 cfbf e494 d145 b0ee b0bf
000007a0: bced 7714 f638 273f 0000 0000 0040 af40
000007b0: 08ad dd91 8f38 6440 86a5 51dc b672 8640
000007c0: e0b3 61dd 8e4a 80bf 6892 0cc5 85fd c93f
000007d0: a1f1 47fa c2f5 17bf 0000 0000 0040 af40
000007e0: 00d0 97a4 b0fc 1240 b016 5bde c5d6 5c40
000007f0: 00e6 53c3 7563 72bf a294 288e 2381 c3bf
