legacy/old_python_scripts/ml_models/data/Y_weighted_train.npy (npy, 480128 bytes, 1 tensors)

array f8 [15000, 4]
00000000: 466b 6977 dd0a 8e40 1ec9 6b13 448a 8b40
00000010: 4bb0 8d0a f892 de3f b591 9f56 8428 ac3f
00000020: 09ab 405b 002a 90c0 098d 680c ce36 88c0
00000030: 3157 e985 c7e8 acbf 35a1 8035 aad4 c6bf
00000040: b4e9 a9e6 3cb2 7ac0 2dad d10f ad93 64c0
00000050: 1702 98ed 830b dfbf b2ca d914 e96b c6bf
00000060: 65bd c3f9 7bc4 92c0 e27a 509d 6482 85c0
00000070: 297b b30c f4ef dabf 5a67 cf28 2aa3 8b3f
00000080: 375b 240f 152b 2840 0dba 79c2 5a45 7740
00000090: 23b2 efc8 e147 cd3f 1c5e 82da 69a0 c23f
000000a0: 1034 4a67 571c 9840 995b 4bbb ef19 7340
000000b0: a982 a3f1 2a79 be3f ce16 5dc2 c06a b63f
000000c0: 7fb3 e625 1e75 8940 60f4 c951 ac0d 7340
000000d0: b977 d923 e875 c8bf 5128 f179 24f5 b9bf
000000e0: 79e9 5be3 b3cb 7640 57b5 fd44 6bd7 8d40
000000f0: d652 998c c562 d73f 17f8 a570 be98 c63f
00000100: ca11 110c a9ab 8fc0 faad f668 cecd 7140
00000110: 0937 003e d7da c6bf e7cd 85a4 60ad 853f
00000120: ef7e 7769 1041 8dc0 43a1 753b 44f8 7240
00000130: d81b 586a 1121 90bf cc60 d9a7 1ce6 aabf
00000140: 8bd4 4427 ceb2 72c0 8d7e f766 8e25 98c0
00000150: 35a5 a299 7bb1 d6bf 7485 ca67 fb70 cebf
00000160: 8efe 2f46 ed94 8740 b0cf 83f6 ff01 8f40
00000170: 33da 11aa 70a2 ba3f 7b01 ff97 fcef cd3f
00000180: 3348 da05 30f7 9ac0 e5f1 93e2 c15c 9640
00000190: 6705 8233 7242 d2bf 6988 9683 4471 cf3f
000001a0: 56f0 251e 1e51 90c0 b6b6 2c58 3136 73c0
000001b0: 7d26 7faf 4bd7 c3bf 01fd 0b37 4ce4 ba3f
000001c0: 8127 9aa1 cbfa 9bc0 2c7f 5e9d e13a 8040
000001d0: be5c 429b a51e d2bf a384 1790 539e c73f
000001e0: ed13 54a4 5ec9 7ac0 f6a1 a14b 863f 6140
000001f0: b39c 34a5 b739 a83f 8441 4950 f13a b53f
00000200: 2bb9 d02d 2329 71c0 899d 9d89 5320 7840
00000210: f2b2 3b33 2789 d0bf d1f5 1791 2578 bb3f
00000220: a20d 5cfd ae50 a3c0 efd3 c95e a5e3 5840
00000230: 8eb0 c7c2 a91a e9bf 2349 51d4 e147 c13f
00000240: 1b30 5a2c 225d 80c0 1e80 07ee f2c1 90c0
00000250: e270 cc3d ecda 7e3f e5e8 4053 6c92 b7bf
00000260: 58a2 55c6 a277 80c0 c4b7 0496 7b58 7bc0
00000270: a26d bcfd 973a a33f 1c7a 9f64 c905 c3bf
00000280: 93e8 4f31 505d 8140 999d 1c78 f52c 5a40
00000290: c7f2 a269 04a9 ca3f 70cf d9fd 737f c33f
000002a0: 56e6 a970 a121 3740 05fd 368c 6c80 7540
000002b0: 59ab eaad 28d9 ba3f bd28 a41f dc9d c83f
000002c0: fe53 5025 3bd5 7bc0 4adb 0da2 becc 89c0
000002d0: 21b6 155a c361 d6bf 5791 d5b5 e3fb c1bf
000002e0: 30b3 4819 e148 8cc0 5d24 f55c 863e 6cc0
000002f0: a9f7 7ba6 3dfc bdbf e6a2 9c9c 23b5 903f
00000300: 5fdb 833b 1dbe 8040 ee03 6ea4 ceca 82c0
00000310: 1f15 21fd 5e37 d63f f720 e87a 1b2b b7bf
00000320: 9a4a 9be1 c0a1 85c0 1dcf 29cc e417 92c0
00000330: 4c48 3562 0b71 bcbf 1739 6101 5825 c0bf
00000340: 346e 3603 ea9a 99c0 379a bc1e 87f1 58c0
00000350: 49ab 0578 5564 d7bf b3b6 ca39 cd2d ad3f
00000360: 1b88 92fc e458 84c0 002e 1dca 782a 6040
00000370: 5f04 b381 76a6 893f 73be 8680 e42e b73f
00000380: 5e06 81d8 f100 9b40 0bee 20b3 d4e8 6240
00000390: 8261 ab01 f66b d53f 257b 4676 d9ec c13f
000003a0: 7c9d ad7d c3e5 9940 8201 163b 08d6 6ec0
000003b0: e154 e304 e2fa d03f ea08 ae0c 4fde a9bf
000003c0: d2c1 173a 42a6 42c0 f21a c22e bf7a 92c0
000003d0: dfec 27c2 b2ca c0bf b969 4da2 ca1c cdbf
000003e0: 47c8 3308 fb29 9140 6e45 5450 28eb 1bc0
000003f0: f5ad 8c05 a346 e53f 59b1 da4d c7b3 b6bf
00000400: 3a71 4436 17d5 9a40 ee5d 94ce 186e 8cc0
00000410: 3d40 7361 c3b9 db3f e68b a4d2 8c40 c8bf
00000420: 310b 74e6 f088 82c0 8cee e7b3 01c8 7dc0
00000430: 4a9c 8f5f d870 c4bf 4c3d cb27 744e c1bf
00000440: 97bd 21b7 9170 7ec0 7182 bfda fd02 88c0
00000450: 434b 308b 34a7 c1bf 164a 3427 94fb c9bf
00000460: cfb3 f2c9 0399 5d40 79f7 c62e e877 50c0
00000470: e0e8 10b1 5996 c3bf ab48 5db5 b6b2 b93f
00000480: 3694 7273 8be4 7c40 50bb 62db a41e 7ac0
00000490: 9781 a3ea e32e cbbf 969a 777d 2d62 cbbf
000004a0: 9f6e 08af cb73 3ac0 778b 3810 664d 8f40
000004b0: 5b99 cc94 47c8 b6bf e91f a707 e531 cc3f
000004c0: ed07 b604 a6c2 7340 5239 e071 72e1 7740
000004d0: fc94 3bd4 4514 d73f f0de e5fb 4567 b43f
000004e0: 6f91 46fd 3ba8 98c0 0f0b b2f9 cb42 71c0
000004f0: eab8 7b8b b0b9 c4bf eab5 a081 cf18 b1bf
00000500: d549 8053 8892 91c0 8300 2a9d fd3f 65c0
00000510: bbfe 8b21 0f55 debf 29f4 e210 eb02 b2bf
00000520: 95a6 6f08 5568 7440 edb9 3c48 cbef 9740
00000530: 16f3 2020 20cf b73f 05db 3300 4021 ca3f
00000540: 0dbb 838a 23ea 4840 ebe8 484a 6be3 7ec0
00000550: c152 a7b7 8e7e 9c3f 31b4 fba3 d882 c3bf
00000560: f005 465a d12b 92c0 656e 0663 58f9 9540
00000570: 5fa8 89f4 a017 d8bf a7da 876e 4657 d03f
00000580: bf8d b2e9 0869 68c0 57b8 c524 615c 8440
00000590: 7e8a a831 7ce5 c6bf e9bb 3ce2 88c5 ca3f
000005a0: f2fc 63ed 22d0 76c0 5616 10c4 cd32 7540
000005b0: 37a9 75af 17de 833f 1415 2d31 393f b8bf
000005c0: b994 485d e57f 70c0 0ffa fbf1 da86 7740
000005d0: a294 2bc0 0de5 61bf cc18 e37e 59e9 cb3f
000005e0: 461a ed01 9f95 87c0 7719 953e 1c5d 86c0
000005f0: 8c9d 7349 1928 b9bf c7aa 5796 5fba b1bf
00000600: 204a 9e28 f338 9640 707d 1c95 6d27 8840
00000610: 851f bf99 b889 d03f e3cf 452e 2ff1 ba3f
00000620: 0b87 48ba 8de6 65c0 82a9 34ed c1ae 5840
00000630: 5a4b 2c67 025c d03f b161 b864 0d4c ac3f
00000640: 71e6 0580 9eb2 7340 b478 8b4a 6e97 8a40
00000650: 09c2 9592 82cf b03f a3e1 b050 e0ca b93f
00000660: b364 5db8 4f0c 8e40 f704 1402 6af9 89c0
00000670: 2a9f 34d0 f724 b63f d136 a962 9241 9fbf
00000680: ac09 fa27 7b38 9ac0 7a7c bdf2 9d94 7040
00000690: f5f4 39f8 6062 e8bf c913 bf6d 120f af3f
000006a0: 37ce bceb 2a74 88c0 d351 f7aa 450b 84c0
000006b0: 37c8 1c2f 4ec0 503f b22e 9018 b523 b6bf
000006c0: 96e4 7be9 1b47 95c0 673c 17a5 0015 86c0
000006d0: c552 e5db 7b68 c6bf 6f86 2929 c75b ccbf
000006e0: a11d aa71 7040 7cc0 5178 e69a c395 7840
000006f0: aa1a 70a3 749c c7bf c45b 0146 96d6 cd3f
00000700: fb18 e1f5 9506 9640 c3a8 5670 7be7 92c0
00000710: bb3c 30bc 9baa e03f fe1f 54d9 5dcf cdbf
00000720: 08d2 082e 16f6 70c0 5130 f6a8 f200 8fc0
00000730: 3a5b 27cc 407d c03f bffd 60e5 dd56 ccbf
00000740: cb6b 6b4a a72e 72c0 fe59 d750 f497 7840
00000750: 3672 61b8 c148 abbf b4e8 6df7 e881 b43f
00000760: 20a5 d137 2dcc 90c0 6c2e 7398 c579 8640
00000770: fa18 b3bc 8bef e1bf f45f 175b 7919 c13f
00000780: 19d5 488f 1cb8 7ec0 4fde b4af 26ba 76c0
00000790: 806a 08f2 e230 c73f cad1 aab5 d44f c8bf
000007a0: 22a3 20c7 2795 90c0 6703 bd4e 7089 6ec0
000007b0: ee51 d450 212e c5bf 2930 f65d 85c5 cebf
000007c0: 3e59 b1d2 34ef 5bc0 6b17 fc2c 46a9 85c0
000007d0: 149c 501d fd27 823f 5e2c 455b e0fc a9bf
000007e0: eb47 efcc 1315 84c0 983d b904 9837 8040
000007f0: aec2 966a e171 d8bf eadd 1f4a 2882 cc3f
961.3581379161703 881.2832401676894 0.4777202704488032 0.05499661977208651 -1034.500348101081 -774.8506096046486 -0.05646346578275397 -0.17836501705574795
-427.13986841556766 -164.61487570717273 -0.48507784082906497 -0.17516816633322702 -1201.1210699638698 -688.2991281783582 -0.4208955883058701 0.0134948056892658
12.084145043552423 372.3346581225349 0.2287561637052856 0.14552043122670077 1543.0853549570347 305.62102822720186 0.11903637313254002 0.08756642098623077
814.639720728257 304.8545701874591 -0.19109822988951722 -0.10139682747936375 364.7314179983437 954.9273776837316 0.3654035447155314 0.17653637409597486
-1013.4575425466112 284.862893069832 -0.17855349089989428 0.01058459760745385 -936.1330136619198 303.5166582674903 -0.01575114451955159 -0.05253686474742522
-299.175330418461 -1545.3890646620741 -0.3545826912255337 -0.23782293861317394 754.6158565282401 992.2499819085842 0.10404113914578587 0.233886312691549
-1725.796897326142 1431.1893408886328 -0.2853055480009829 0.24564415383526075 -1044.2794118812503 -307.3870469805364 -0.15500780171560172 0.10504604667584162
-1790.698858650838 519.3601634390411 -0.28312053834947537 0.18451923881278728 -428.58560593455223 137.98514348572616 0.047315348545731516 0.08293064317809323
-274.57108861477417 386.02039491241936 -0.25837116244547 0.10730204384159171 -2472.341776730217 99.55696840009453 -0.7845047764108288 0.13500616900507464
-523.6416861577922 -1072.4872361347147 0.007532999818774951 -0.09207798988873923 -526.9544798555535 -437.53017236559776 0.03755640957225671 -0.1486140958140404
555.6641565554477 104.70248225016111 0.2082829967311197 0.15232705969867366 23.131369630317145 344.0265009067519 0.10487608190548538 0.1923175005434298
-445.3269398820702 -825.5930825312182 -0.3497169856771923 -0.14049955729127347 -905.1099115066227 -225.9539017475062 -0.11713013948971586 0.01631599086172999
535.7642736722299 -601.350899562354 0.3471295806851504 -0.09050151587155485 -692.2191803104536 -1157.9734350712454 -0.11109992168101818 -0.12613964145061438
-1638.7285278801692 -99.7738720743008 -0.3654988929835566 0.056990063957852576 -651.1118098686014 129.32724481295736 0.012524534066303326 0.09055927408075508
1728.2361774597298 151.27596432143795 0.3347144142440116 0.14004057192956867 1657.440909111726 -246.6885047368815 0.26531267621369464 -0.05052420644553186
-37.29889608535781 -1182.686701805968 -0.13118586044570343 -0.2274411480419312 1098.495148476695 -6.9796459723887505 0.6648726566685911 -0.08868070269335727
1717.272667951022 -909.762112769238 0.433213086286745 -0.18946991238871574 -593.1176270547786 -476.500415712341 -0.15969376245559125 -0.13520671790181849
-487.0355750387184 -768.3739523851092 -0.13791519924469683 -0.20299007334013258 118.39085625363735 -65.87354630880681 -0.15302582879832638 0.1003832047256618
462.28404564626123 -417.9152482849795 -0.21236847836463532 -0.21393364549949884 -26.452326716955778 1001.6748356263696 -0.08899352438729606 0.2202726638190591
316.16553183656544 382.0904406317469 0.36061235166410177 0.07970082664348488 -1578.0585833574548 -276.1747986750424 -0.16191679774005446 -0.06678482928028698
-1124.6331310315193 -169.99970873073116 -0.4739415958028805 -0.07035702860135075 326.52075999845084 1531.948517750595 0.09300423416511835 0.20413970956698094
49.829209627458205 -494.2136938903847 0.027826528510405128 -0.15243061072342948 -1162.9544459286808 1406.336315250862 -0.37644218330991025 0.2553268508340047
-195.28233799814004 651.5474334189302 -0.17887833046650664 0.20915328070392938 -365.00852717454757 339.1752358082207 0.00970095161638494 -0.09471471262539338
-263.9934971652215 376.42845343044695 -0.0021844166343379526 0.218058764416304 -754.7026403926509 -715.6387912414929 -0.09826810878040798 -0.06925008221120797
1422.2374596340887 772.9285070634633 0.2584058286124605 0.10524268035607025 -175.20480074086694 98.73058633940494 0.25561580729952527 0.05526773313994527
315.1636963110423 850.9288531204425 0.06566635206923634 0.10075189561837887 961.5389258667332 -831.1767617763534 0.08650158723014259 -0.030523574134625534
-1678.1202696865466 265.2885615732008 -0.7620091293498762 0.0606618651359337 -782.5209574461395 -641.4090174981924 0.001022411681742342 -0.08648235177696043
-1361.7772578581112 -706.6253148856457 -0.17506359326457335 -0.22155084142564216 -452.02745214892826 393.36025514628733 -0.184462146571794 0.23311117571094375
1409.6464457675454 -1209.8705457249168 0.5208262134127816 -0.232890826337325 -271.38041499562723 -992.1184863313193 0.12882242172664765 -0.22140096378460147
-290.91584245644907 393.4971474086923 -0.053289464719203414 0.08010726967578102 -1075.0441582448038 719.22148218141 -0.5604914365328846 0.13358990619485633
-491.5069725842491 -363.63444491054264 0.18117939775477865 -0.1899362456366716 -1061.2888455485886 -244.29495942036303 -0.16547028013941606 -0.24040286148044857
-111.73759906119537 -693.1592654890677 0.008865334946746052 -0.05075741876734051 -642.634668225653 518.9492277595446 -0.38195071610520415 0.22272208804473276
