experiments/gen_1/trained_models/pinn_v2_shallow_1024_256/exports/pinn_v2_shallow_1024_256.onnx (onnx, 20808 bytes, 5 tensors)

network.4.bias f4 [4]
00000000: 906a f4ba 6feb 8cbb 995b 313c e810 e13b
-0.0018647481 -0.004300527 0.010825061 0.0068684705

input_mean f4 [6]
00000000: f954 333b 02d3 96bc 1ed6 12b7 b70c de35
00000010: 8b3a 54b2 0000 0000
0.002736388 -0.018411163 -8.752131e-06 1.654399e-06 -1.2353335e-08 0.0

input_std f4 [6]
00000000: 3132 2d43 cd58 1043 5f5e b13d 2460 b13d
00000010: 540f 213a 0000 803f
173.19606 144.34688 0.08660578 0.086609155 0.00061439467 1.0

output_mean f4 [4]
00000000: ffa6 89bd e705 a9bb c8a5 12b7 e37f de35
-0.06721305 -0.0051581743 -8.740877e-06 1.6577509e-06

output_std f4 [4]
00000000: a589 3244 95ee 3044 6a5f b13d 2d60 b13d
714.1507 707.72784 0.08660777 0.08660922
