experiments/gen_1/trained_models/mlp_medium_v1/exports/mlp_medium_v1.onnx (onnx, 2752 bytes, 5 tensors)

network.6.bias f4 [4]
00000000: 2beb a6bb 09fd 9039 647b 693d 2c41 c03d
-0.005093952 0.00027654346 0.05700244 0.093874305

input_mean f4 [6]
00000000: f6e4 553c c158 12bb e904 61b7 f5fd 0b37
00000010: d3d9 e131 0000 fa45
0.013055077 -0.0022330733 -1.3412188e-05 8.344175e-06 6.5731256e-09 8000.0

input_std f4 [6]
00000000: 8131 2d43 3a56 1043 dc5c b13d 425f b13d
00000010: 0b0f 213a 77cc 2b32
173.19337 144.33682 0.0866029 0.08660747 0.0006143904 1e-08

output_mean f4 [4]
00000000: b918 c1bd b22b 843d f122 61b7 d80a 0c37
-0.094285436 0.06453647 -1.34191805e-05 8.347175e-06

output_std f4 [4]
00000000: c488 3244 3fee 3044 e75d b13d 4a5f b13d
714.13696 707.7226 0.086604886 0.08660753
