experiments/next_generation/trained_models/mlp_v2_shallow_1024_256/exports/mlp_v2_shallow_1024_256.onnx (onnx, 2221 bytes, 5 tensors)

network.4.bias f4 [4]
000000 3e aa 86 ba 3c 2e 21 bb 2f c7 17 bd c0 0b 8d 3d
       -0.0010274125 -0.0024594208 -0.03705519 0.06887007

input_mean f4 [6]
000000 2a f2 02 bc bd e6 08 bc c5 d6 e9 b6 46 a0 8b 36
       -0.007992307 -0.008355794 -6.9689436e-06 4.161181e-06
000010 c1 ff 30 b3 00 00 fa 45
       -4.12108e-08 8000.0

input_std f4 [6]
000000 85 32 2d 43 b6 56 10 43 a3 5c b1 3d 70 5f b1 3d
       173.19734 144.33871 0.08660247 0.086607814
000010 99 0d 21 3a 77 cc 2b 32
       0.0006143689 1e-08

output_mean f4 [4]
000000 c1 0a 82 bd 88 53 cc 3c 9a 80 e8 b6 c1 ab 8b 36
       -0.063497074 0.024942175 -6.92911e-06 4.1625176e-06

output_std f4 [4]
000000 aa 88 32 44 01 ec 30 44 b0 5d b1 3d 79 5f b1 3d
       714.1354 707.68756 0.086604476 0.08660788
