experiments/gen_1/trained_models/mlp_v2_single_512/exports/mlp_v2_single_512.onnx (onnx, 1599 bytes, 5 tensors)

network.2.bias f4 [4]
0	0xbc0b303d	-0.008495388
1	0xbbf6e836	-0.007535006
2	0xbc8e8fa9	-0.017402487
3	0xbd0fa5d1	-0.035070244

input_mean f4 [6]
0	0x3b91d341	0.0044502323
1	0x3b1631f7	0.0022917965
2	0xb5d0f250	-1.556773e-06
3	0x33db7c7b	1.0220625e-07
4	0xb38975b3	-6.400969e-08
5	0x45fa0000	8000.0

input_std f4 [6]
0	0x432d30a0	173.18994
1	0x43105704	144.3399
2	0x3db15cd3	0.08660283
3	0x3db15dd6	0.08660476
4	0x3a211466	0.0006144702
5	0x322bcc77	1e-08

output_mean f4 [4]
0	0xbbf9f3ae	-0.007627926
1	0x3b4c9889	0.0031218848
2	0xb5c8d0d5	-1.4961939e-06
3	0x33e0699b	1.04500224e-07

output_std f4 [4]
0	0x44328823	714.12714
1	0x4430ecb6	707.6986
2	0x3db15ddc	0.086604804
3	0x3db15ddf	0.086604826
