experiments/gen_1/trained_models/mlp_wide_v1/exports/mlp_wide_v1.onnx (onnx, 3321 bytes, 5 tensors)

network.8.bias f4 [4]
000000 57 df 13 bc 7e ad 33 3c 62 d7 d4 3d 34 ce f1 3d
       -0.009025416 0.010966657 0.103926435 0.11806908

input_mean f4 [6]
000000 9f 6c 2c b9 e8 93 a8 bb ea d6 87 36 09 de 34 37
       -0.00016443663 -0.005144585 4.048333e-06 1.0780533e-05
000010 45 16 ea b2 00 00 fa 45
       -2.7251312e-08 8000.0

input_std f4 [6]
000000 2e 32 2d 43 03 5a 10 43 9c 5c b1 3d da 5f b1 3d
       173.19601 144.35161 0.08660242 0.0866086
000010 ff 0f 21 3a 77 cc 2b 32
       0.0006144046 1e-08

output_mean f4 [4]
000000 b2 98 04 3d c0 19 a6 3d 26 ab 88 36 73 e0 34 37
       0.032372184 0.0811038 4.07304e-06 1.0781095e-05

output_std f4 [4]
000000 a0 87 32 44 eb ed 30 44 9b 5d b1 3d e3 5f b1 3d
       714.11914 707.71747 0.08660432 0.08660867
