experiments/next_generation/trained_models/pinn_v2_shallow_512_256/exports/pinn_v2_shallow_512_256.onnx (onnx, 20802 bytes, 5 tensors)

network.4.bias f4 [4]
0	0x3b634141	0.0034676346
1	0xbaa613bd	-0.0012670677
2	0xbe134fa8	-0.14385855
3	0x3e713704	0.23556143

input_mean f4 [6]
0	0xbc16c99d	-0.009203342
1	0xbce5ee1a	-0.028067637
2	0xb69c3950	-4.6558343e-06
3	0x35ffdcd7	1.9063253e-06
4	0x33d34e5b	9.839706e-08
5	0x00000000	0.0

input_std f4 [6]
0	0x432d31eb	173.19499
1	0x43105672	144.33768
2	0x3db15dae	0.08660446
3	0x3db160ab	0.08661016
4	0x3a210e9c	0.00061438396
5	0x3f800000	1.0

output_mean f4 [4]
0	0xbd40aaf2	-0.047038026
1	0xbc51b34e	-0.012799097
2	0xb69f64d2	-4.7503063e-06
3	0x36002856	1.9096965e-06

output_std f4 [4]
0	0x44328a29	714.15875
1	0x4430ee20	707.7207
2	0x3db15eb6	0.08660643
3	0x3db160b4	0.08661023
