legacy/old_experiments/onnx_export/mlp_full_domain.onnx (onnx, 18549 bytes, 6 tensors)

network.6.bias f4 [64]
0	0x3d79d675	0.060995538
1	0x3d933d88	0.071894705
2	0x3d9004a8	0.07032138
3	0xbda65872	-0.08122338
4	0x3e8f15e0	0.27946377
5	0xbd54a307	-0.051913287
6	0x3b0276c1	0.0019907209
7	0xbd974158	-0.0738551
8	0x3d3e3878	0.04644057
9	0xbcccedcf	-0.02501574
10	0xbd6a6f75	-0.0572352
11	0x3dd39435	0.103310026
12	0x3ccc28ae	0.024921741
13	0x3d079ac2	0.033106573
14	0xbd3dcfab	-0.046340626
15	0x3dd06456	0.101753876
16	0x3d28f0e6	0.041245364
17	0x3e93124b	0.28724894
18	0xbd5244b9	-0.05133507
19	0xbaffe853	-0.0019524194
20	0x3dbd2ba8	0.092368424
21	0xbd0f9925	-0.03505816
22	0xbb4b739b	-0.0031044248
23	0xbe44390c	-0.19162387
24	0x3cf1be4b	0.029509684
25	0xbde70416	-0.11280076
26	0x3cf608d3	0.030033505
27	0xbd9d3913	-0.07676902
28	0x3c99cefe	0.01877546
29	0xbd60ce74	-0.05488439
30	0xbdde2f1e	-0.10848831
31	0xbe200ed3	-0.15630655
32	0xbdc01d74	-0.09380618
33	0x3d25ba14	0.04046066
34	0x3bbe77da	0.0058126273
35	0x3dcab4a4	0.09897736
36	0xbd00b4f3	-0.031422567
37	0x3dc0e76f	0.094191425
38	0x3ce479c2	0.02789009
39	0xbda18b03	-0.078878425
40	0x3d72933c	0.059222445
41	0x3c2e9c2d	0.010657352
42	0xbcaa3558	-0.02077739
43	0xbd5d9965	-0.054101367
44	0xbc28800e	-0.010284437
45	0xbcb9db79	-0.02268766
46	0xbd05a662	-0.03262938
47	0xbe81bca1	-0.25339225
48	0xbc5fa7de	-0.0136508625
49	0x3c56ca6e	0.013109786
50	0xbead3df2	-0.33836323
51	0x3ec8d1a5	0.39222446
52	0x3d725d3d	0.05917095
53	0xbc559066	-0.013034916
54	0x3dbb4d40	0.09145594
55	0x3cbaf78f	0.022823123
56	0x3b9f1678	0.0048549734
57	0x3d1c7b9b	0.038203817
58	0xbd28351c	-0.041066274
59	0xbe7a7645	-0.24459179
60	0x3c2417c2	0.01001543
61	0xbd951412	-0.07279219
62	0x3d47e426	0.048801564
63	0xbd1a9f0c	-0.037749335

network.8.bias f4 [4]
0	0x3db83bc5	0.08995775
1	0x3c1f0788	0.009706385
2	0x3dac23e1	0.08405281
3	0x3f03983c	0.51404166

input_mean f4 [6]
0	0x402f12eb	2.7355297
1	0xbfcb1202	-1.586487
2	0x3a874cc7	0.0010322564
3	0xba30085b	-0.0006715112
4	0x360eefaf	2.1299163e-06
5	0x457a0000	4000.0

input_std f4 [6]
0	0x4401ca1a	519.15784
1	0x43d95768	434.68286
2	0x3e307653	0.17232637
3	0x3e138b49	0.14408602
4	0x399b96f7	0.0002967638
5	0x322bcc77	1e-08

output_std f4 [4]
0	0x448e9701	1140.7189
1	0x4437a4c7	734.57465
2	0x3f1534aa	0.58283484
3	0x3e28cacf	0.16483615

output_mean f4 [4]
0	0x4000ac2c	2.0105085
1	0xc059d55d	-3.4036477
2	0xba93ad5d	-0.0011266876
3	0x3a09446e	0.0005236332
