legacy/old_experiments/onnx_export/pinn_full_domain.onnx (onnx, 18557 bytes, 6 tensors)

network.6.bias f4 [64]
000000 0a 77 30 3d d5 f2 0d 3d 80 4f 4d 3b dc ca d3 bd
       0.043082274 0.03465541 0.0031327903 -0.10341427
000010 7a fc a5 ba d9 b6 f4 3b 7d 6d ec 3c a5 4b d4 bc
       -0.0012663745 0.007468086 0.028860802 -0.025914976
000020 54 66 07 3d 2e 65 85 3d a0 87 7c bc 13 48 4b bd
       0.033056572 0.06513439 -0.015413195 -0.049629282
000030 8b 94 5a bd 58 68 5b 3c e9 df 95 3d 07 4e 41 3d
       -0.053364318 0.013391577 0.07318098 0.047193553
000040 df 3e 33 3d 95 37 c2 3c 34 08 f4 bc 15 f8 97 bd
       0.04376113 0.023708144 -0.029789068 -0.07420365
000050 2d 54 ca bb e3 1c d8 bd e8 7b 59 bd ce e9 9f 3c
       -0.0061745853 -0.10552385 -0.05309668 0.019520666
000060 65 e2 15 bc 3b cc c5 3d fe 17 25 bc 99 3b 5f 3d
       -0.009148215 0.096580945 -0.010076521 0.054500196
000070 fc b5 39 bb 18 68 69 3d 5e d9 47 3c 96 a8 11 3d
       -0.002833723 0.056984037 0.0121978205 0.035561167
000080 73 21 6f bd 18 9d b5 bd b2 d0 9f 3c e5 1f 3e 3d
       -0.05838151 -0.08867854 0.019508693 0.046417136
000090 b8 2a 3e bd 24 dc cc bc 51 01 5d 3d 43 06 8f bc
       -0.04642746 -0.025007315 0.053956334 -0.01745904
0000a0 1c 40 3a bd 25 fd 60 bd 6d ae 07 3d 77 95 44 bd
       -0.045471296 -0.054928917 0.03312533 -0.047994103
0000b0 47 6f 22 3d b5 14 31 bb 20 37 42 bd d4 56 9a 3d
       0.039656904 -0.00270204 -0.047415853 0.075360924
0000c0 2b 0d 27 bd ea bc 95 3c 6b 65 a9 bc c5 2d 87 3d
       -0.040784042 0.018278558 -0.020678243 0.06600527
0000d0 b5 0a 03 bd c8 66 5a 3c f5 e6 94 3d 32 e1 35 3b
       -0.031992633 0.013330169 0.07270614 0.0027752635
0000e0 a0 c2 78 3d f4 32 73 3d a9 07 71 3c 7d 39 7a 3d
       0.060732484 0.059374765 0.014711299 0.06108998
0000f0 6f 06 6a bb 3b 87 5b 3a a1 60 d0 bc ed 08 02 bd
       -0.00357094 0.0008374338 -0.025436701 -0.031746794

network.8.bias f4 [4]
000000 53 5e 64 bc 7a f0 68 3c c5 c1 03 c0 51 8f 09 3f
       -0.013938504 0.01421749 -2.0587018 0.5373431

input_mean f4 [6]
000000 ed 12 2f 40 02 12 cb bf c8 4c 87 3a 5b 08 30 ba
       2.7355301 -1.586487 0.0010322565 -0.0006715112
000010 af ef 0e 36 00 40 9c 45
       2.1299163e-06 5000.0

input_std f4 [6]
000000 99 c9 01 44 8f 56 d9 43 a3 75 30 3e b6 8a 13 3e
       519.14996 434.67624 0.17232375 0.14408383
000010 5c 96 9b 39 f9 00 fa 44
       0.0002967593 2000.0304

output_std f4 [4]
000000 17 8d 5d 44 c3 e2 16 44 3f 09 dc 3e f8 85 1e 3e
       886.2045 603.54315 0.42975804 0.15480793

output_mean f4 [4]
000000 89 df 17 40 2f af 1f c0 bf 09 46 b8 be 0f 9b b8
       2.3730185 -2.4950674 -4.7215955e-05 -7.393908e-05
