experiments/gen_1/trained_models/pinn_v2_single_256/exports/pinn_v2_single_256.onnx (onnx, 16526 bytes, 5 tensors)

network.2.bias f4 [4]
00000000: 85ac 813b be3c 10bc fc83 1dbd 70b2 fb3a
0.0039573335 -0.008803545 -0.03845595 0.0019202959

input_mean f4 [6]
00000000: 478d adbc ca06 dabc 4c48 4db7 675f c8b5
00000010: c49d 22b3 0000 0000
-0.02118553 -0.026614565 -1.2235785e-05 -1.4928927e-06 -3.786205e-08 0.0

input_std f4 [6]
00000000: 2c34 2d43 4155 1043 5d5d b13d cc5f b13d
00000010: 1515 213a 0000 803f
173.2038 144.33302 0.08660386 0.0866085 0.0006144804 1.0

output_mean f4 [4]
00000000: 1f6a f3bd 8fe0 1dbd afb1 4cb7 0a0f c8b5
-0.11885475 -0.038544234 -1.2200718e-05 -1.4905538e-06

output_std f4 [4]
00000000: f489 3244 49ee 3044 675e b13d d55f b13d
714.1555 707.7232 0.08660584 0.08660857
