experiments/gen_1/trained_models/mlp_v2_shallow_256/exports/mlp_v2_shallow_256.onnx (onnx, 2194 bytes, 5 tensors)

network.4.bias f4 [4]
00000000: adb6 f33a d76b f33b 28c4 83bd fd35 5fbd
0.001859387 0.007428627 -0.06433898 -0.054494847

input_mean f4 [6]
00000000: 36aa 553b 37e4 0cbc f891 6636 1602 33b6
00000010: 1602 a633 0000 fa45
0.0032602674 -0.0085993325 3.4357636e-06 -2.6674293e-06 7.730357e-08 8000.0

input_std f4 [6]
00000000: b332 2d43 2c56 1043 015d b13d 015e b13d
00000010: 7a0b 213a 77cc 2b32
173.19804 144.33661 0.08660317 0.08660508 0.0006143373 1e-08

output_mean f4 [4]
00000000: a607 f83c 7a27 f5bc ca91 6136 c2db 32b6
0.030277085 -0.02992605 3.3612473e-06 -2.6651983e-06

output_std f4 [4]
00000000: 7389 3244 eaec 3044 0d5e b13d 0a5e b13d
714.14764 707.7018 0.08660517 0.08660515
