experiments/gen_1/trained_models/mlp_wide_shallow_v1/exports/mlp_wide_shallow_v1.onnx (onnx, 2196 bytes, 5 tensors)

network.4.bias f4 [4]
00000000: 59e2 e2bb 3d13 0ebc 6c84 f7bc 5ae2 8e3c
-0.0069239554 -0.008671579 -0.03021451 0.017441917

input_mean f4 [6]
00000000: fd11 57bb b9b9 ea39 43d3 e2b6 b23e a9b6
00000010: 7d5e 21b2 0000 fa45
-0.0032817118 0.00044770332 -6.759919e-06 -5.043891e-06 -9.3929176e-09 8000.0

input_std f4 [6]
00000000: e931 2d43 9d58 1043 da5c b13d 7060 b13d
00000010: ac0e 213a 77cc 2b32
173.19496 144.34615 0.08660288 0.08660972 0.0006143849 1e-08

output_mean f4 [4]
00000000: d0bb 6abd f661 23bd 3787 e2b6 4227 a9b6
-0.05730802 -0.039888345 -6.751066e-06 -5.0411627e-06

output_std f4 [4]
00000000: f087 3244 bdee 3044 dd5d b13d 7860 b13d
714.124 707.7303 0.08660481 0.08660978
