experiments/gen_1/trained_models/mlp_narrow_deep_v1/exports/mlp_narrow_deep_v1.onnx (onnx, 4721 bytes, 10 tensors)

network.0.bias f4 [64]
00000000: fc2f 0f3d de4d b33c 5041 113c 59c6 a3bc
00000010: daaa e93c d74d a53c cf19 dc3c f50f 853c
00000020: ed78 1cbd 9592 963c 95bf be3c c9a4 0f3d
00000030: 54f3 e63c a332 a2bc aedd ffbc eb4e 273c
00000040: 5000 a8bc 3c59 acbc ec43 d03b 9b16 ea3c
00000050: a2f9 a73a 2d53 8ebc 06ac 0e3d f2c5 1fbd
00000060: 7488 bb3a bba8 c43c 2e14 f13b 9b3d bbbb
00000070: 529e 5d3c 9c32 b73c 2680 babc 2738 343c
00000080: bb77 2cbd e93a 883c 274d 873a 715c fd3c
00000090: cf65 963c a857 6abb 9db1 6d3c db48 83bc
000000a0: 579d 5ebc 0aa6 34bc 0d14 2aba 13d8 643c
000000b0: 8f02 303d 3e25 cc3c da09 d43c a606 1bbd
000000c0: f2de 52b9 9588 ab3b 5062 a83c 18f6 13bd
000000d0: 7342 c03c 3984 e83c 8263 62bb edc1 523b
000000e0: 2c6b 7b3c 22eb aabc b95b de3c d212 c8bc
000000f0: e662 ae3c 045e 523c 2003 1dbd 0808 d1bc
0.03495787 0.021887716 0.008865669 -0.01999204 0.028523851 0.020178718 0.026867775 0.01624296
-0.03820126 0.018380443 0.023284713 0.03506926 0.0281922 -0.019799536 -0.031233635 0.010211687
-0.020507962 -0.021038644 0.006355753 0.028575232 0.0012815485 -0.017373646 0.034832023 -0.039007135
0.0014307634 0.024006238 0.007357142 -0.005714131 0.013526516 0.022363 -0.022766184 0.010999716
-0.04210637 0.016629653 0.0010322676 0.030927869 0.018359093 -0.0035757814 0.014507678 -0.016025951
-0.013587317 -0.011025915 -0.0006487973 0.013967532 0.04297119 0.024920102 0.025883604 -0.037848137
-0.00020110214 0.0052347877 0.020554692 -0.036123365 0.023469185 0.028383361 -0.0034544175 0.0032159046
0.015345376 -0.020864073 0.027143346 -0.024423037 0.021287393 0.012839798 -0.03833306 -0.025516525

network.2.bias f4 [64]
00000000: e877 033b ac69 963c d6a3 b3bc 79c7 1c3c
00000010: 8ae7 b23c 6b4f ad3c 6ff9 673c fe91 c43c
00000020: 56b5 00bd 8bcd 80bc 5f8c a43c aaed f3bc
00000030: 127e 5f3c 805e 253c 819f b23c 7287 29bd
00000040: 369b 173c dec1 d9bc 942e 9bbc d134 633c
00000050: 2e34 aa3c 6b69 243c 68fa 09bd 9ece 473c
00000060: d268 433c 4d89 a33c d0d9 f83c 33fb 5b3c
00000070: e4c0 74bc 8943 0a3d 3014 d5bc 9a87 78bb
00000080: 7ef7 b83c fd3b 5abc 1209 8d3c 2f04 973c
00000090: fe6d d0bc ae94 aabc 0fcc 85bc 6996 adbc
000000a0: 5cee 763c e8bb be3b a7ac c93c 5027 c83c
000000b0: d436 5abc 401c 883c d04d 213c d033 6b3c
000000c0: 6138 65bc f945 153c 7a65 0bbd 47cd 923b
000000d0: f2eb 24bb f275 42bb e27a 053d 18dd c63c
000000e0: fbbf b73a 6a65 debb 6c9b a23c 5d2d 633c
000000f0: a2bc 5abc dc9d e33c f43e 7c3c 5aaa f0bc
0.0020060483 0.018360935 -0.021928709 0.009569042 0.021838922 0.021156034 0.014158591 0.023995396
-0.031422935 -0.01572301 0.020086465 -0.029776413 0.013640897 0.010093331 0.021804573 -0.041388936
0.009253314 -0.0265817 -0.018943109 0.013867573 0.020776834 0.010034899 -0.03368607 0.0121952575
0.011926847 0.019962931 0.030377299 0.01342659 -0.014938567 0.033755813 -0.026010603 -0.0037922622
0.022578951 -0.013319966 0.01721624 0.018434612 -0.025443073 -0.02082285 -0.016332654 -0.021189885
0.015071478 0.00582074 0.02461846 0.024432808 -0.013318736 0.016615033 0.009845212 0.014355615
-0.013990493 0.009110921 -0.034032322 0.0044800374 -0.0025165048 -0.0029672352 0.032587893 0.024275348
0.0014019007 -0.006786992 0.019849502 0.013865796 -0.013350638 0.027785234 0.015395869 -0.029378105

network.4.bias f4 [64]
00000000: 8e7f fdbb bc0c ad3c d2fb 013c f067 453c
00000010: 03e5 0dbb 06bc d83c fc91 a7bb b3c2 b6bc
00000020: cc57 cbbc a147 af3c ac58 2e3c a57c 9f3c
00000030: ae05 e0bb d3b4 c4bc 3422 a33c 0b2a cb3c
00000040: 67aa 3f3c 9f57 11bd 15f0 3f3c a402 aa3c
00000050: 65d3 12bd fdc5 45bc 1810 623c 2cd7 753c
00000060: e97a 813c c0ea 923c a89c bbbc d544 173c
00000070: ba66 e53c 9889 35bd 5e06 c03c 9ac3 273c
00000080: 8074 863c af9e 67bc db87 96bb 0354 903c
00000090: 55e2 6f3c cc64 733c 2e00 c9ba c6e5 633c
000000a0: 73e2 223b b859 b23c 1673 5c3c ad27 653c
000000b0: 5d30 b33c 43d3 933c 8ace dbbc 0e94 2b3c
000000c0: 118d d93b c8df 1bbd f90b a53c 4db7 fd3b
000000d0: ab4f 963c 84a6 d83c a6ae 893b 29fc a237
000000e0: ad84 963c 42d6 703c 9879 293c 66df 443c
000000f0: c1ad 853c 7b16 ccbb 1540 333c 0555 d2bb
-0.007736153 0.021124236 0.007933574 0.012048706 -0.0021651394 0.026456844 -0.0051138382 -0.022309637
-0.024822138 0.02139646 0.010641258 0.019468615 -0.0068366146 -0.024012005 0.01991377 0.024800321
0.011698342 -0.035483953 0.011714955 0.020753212 -0.035846133 -0.01207113 0.013797782 0.015004914
0.015805678 0.017934203 -0.022901848 0.009232719 0.028003085 -0.044320673 0.023440536 0.010239506
0.016412973 -0.014136954 -0.004593832 0.017618185 0.014641364 0.014855575 -0.0015335137 0.013909763
0.0024854213 0.021771297 0.013455173 0.01398651 0.021873647 0.018045073 -0.026831884 0.010472311
0.006639131 -0.03805521 0.02014731 0.0077427984 0.018348536 0.026446588 0.004201728 1.9429326e-05
0.018373812 0.014699521 0.010343932 0.012016153 0.016318204 -0.006228266 0.010940571 -0.0064188265

network.6.bias f4 [64]
00000000: 9466 d23c 9bfd 09bd bfc1 fdbc facd ae3c
00000010: f005 1fbd ea34 c33b 7107 c13c ac37 d43c
00000020: 6873 26bd 7761 873c a7f2 303c 5988 5b3b
00000030: 0961 9e3c 7ae3 c43b c689 8cbc 57e3 b23c
00000040: 491e 293c fa92 34bc fab8 053c e6ac 823c
00000050: 1ad8 1cbd 0b50 a4bc 722a 73bc f197 403c
00000060: 7b26 dd3b f457 cf3c 3f15 ac3c 3f53 8dbc
00000070: 7483 d63c 91dd 273c 41b1 84bb 2ee4 f03c
00000080: 4360 4dbb a5a5 a63c 3fcb e03b 40d7 8a3c
00000090: 6cf6 883c dc35 a6bc e99a cb3b 8dc6 063d
000000a0: 4f52 1dbc bbc2 8e3c 673b 103c 17b0 8a3c
000000b0: 38a2 0c3c f095 44bd ec88 303c 782e c23a
000000c0: c0b2 ac3c 7325 033d 1c9b d0b9 8105 a33c
000000d0: e963 8e3c 3169 fbbc 2cad a53c c3c2 75bd
000000e0: e645 afbc ced9 753c 8d02 aa39 735a 43bd
000000f0: 791c 8f3b 2834 e83c d731 2f3b 010b dabc
0.025683679 -0.033689123 -0.030976174 0.021338452 -0.03882402 0.0059572356 0.023563119 0.025905453
-0.040637404 0.016525967 0.01080004 0.0033498018 0.01933338 0.0060085626 -0.01715554 0.02183692
0.010322162 -0.01102137 0.008161778 0.015951585 -0.038292028 -0.020057699 -0.014841663 0.011754976
0.006748972 0.025310494 0.021006225 -0.017251609 0.026185729 0.010245697 -0.0040494506 0.02940568
-0.0031337894 0.020342657 0.0068601663 0.016948342 0.016719066 -0.020289354 0.006213535 0.032904197
-0.009602143 0.01742684 0.008803225 0.01692967 0.008583598 -0.047994554 0.010774832 0.0014814874
0.021081328 0.032018136 -0.00039788417 0.019900085 0.017381625 -0.030689808 0.020224176 -0.060000192
-0.021395635 0.015005542 0.00032426827 -0.04769368 0.004367408 0.028345183 0.0026732588 -0.026616575

network.8.bias f4 [32]
00000000: bff7 0bbc a231 fcbc d5ad c03c 0334 b83c
00000010: ca89 663b 7642 7bbc dbe0 0f3c 66c5 a63b
00000020: 012f 453b 5d82 9f3c 59fa b7bb 0536 653c
00000030: 13e9 a13a 51e0 6c3c 7120 27bd 1fb3 a13c
00000040: 2369 95bc fa04 bd3c e003 2b3c 86c3 f23c
00000050: 57e5 fbb9 8cbe daba 12b2 cbba 4a96 60ba
00000060: c3af 1e3d 7a6a a7bb c530 813c dc1a 383c
00000070: 7030 38bb 064f f13c 0ff3 96bc f1b8 fa3c
-0.008542954 -0.030785386 0.02352039 0.022485739 0.0035177344 -0.01533567 0.008781637 0.0050894497
0.003008783 0.019471342 -0.0056145606 0.01398993 0.0012352787 0.014457778 -0.040802423 0.019738732
-0.01823861 0.023073662 0.010437936 0.029634248 -0.00048045322 -0.0016688867 -0.001554074 -0.00085673167
0.03874184 -0.0051091285 0.015770325 0.0112368725 -0.0028105043 0.029456627 -0.018426446 0.030605765

network.10.bias f4 [4]
00000000: 981c 423c e4fc 703c ae12 623d ba80 6c3d
0.011847638 0.014708731 0.055193596 0.05773995

input_mean f4 [6]
00000000: 1f53 b3bc 1569 92bc 88b0 9a36 c311 84b3
00000010: b328 08b3 0000 fa45
-0.021890221 -0.017872373 4.6101086e-06 -6.14996e-08 -3.1701983e-08 8000.0

input_std f4 [6]
00000000: 3b32 2d43 5257 1043 c05b b13d d35e b13d
00000010: fa10 213a 77cc 2b32
173.19621 144.3411 0.08660078 0.086606644 0.00061441923 1e-08

output_mean f4 [4]
00000000: 3c99 783c b250 96bc f2ae 9b36 22c6 7bb3
0.015173253 -0.018349025 4.6397263e-06 -5.8620692e-08

output_std f4 [4]
00000000: e787 3244 d5ed 3044 d65c b13d dc5e b13d
714.1235 707.7161 0.08660285 0.08660671
