experiments/next_generation/trained_models/pinn_v2_shallow_256/exports/pinn_v2_shallow_256.onnx (onnx, 20781 bytes, 5 tensors)

network.4.bias f4 [4]
-0.0014050725 -0.0006121011 -0.20870537 -0.03532199
00000000: 692a b8ba 6975 20ba dcb6 55be caad 10bd

input_mean f4 [6]
0.009233348 -0.014429416 -1.2997726e-05 2.8227473e-06 9.5674455e-09 0.0
00000000: 7847 173c 5b69 6cbc cf10 5ab7 6e6e 3d36
00000010: 125e 2432 0000 0000

input_std f4 [6]
173.1951 144.3456 0.08660077 0.08660572 0.000614375 1.0
00000000: f231 2d43 7958 1043 bf5b b13d 575e b13d
00000010: 020e 213a 0000 803f

output_mean f4 [4]
-0.09481212 0.008183861 -1.3007574e-05 2.8287218e-06
00000000: db2c c2bd 9a15 063c 1b3b 5ab7 12d5 3d36

output_std f4 [4]
714.1362 707.7163 0.086602785 0.08660578
00000000: b888 3244 d8ed 3044 cd5c b13d 5f5e b13d
