experiments/gen_1/trained_models/mlp_v2_single_256/exports/mlp_v2_single_256.onnx (onnx, 1597 bytes, 5 tensors)

network.2.bias f4 [4]
00000000: 9cd3 f8bc 6549 ce3b 010b a2bc 2232 2c3b
-0.03037434 0.0062953704 -0.019780638 0.0026274999

input_mean f4 [6]
00000000: a2b2 19bb 51ef e9bc cda0 22b7 88b3 eeb6
00000010: 09ce 3a32 0000 fa45
-0.002345242 -0.028556498 -9.693392e-06 -7.113853e-06 1.0873472e-08 8000.0

input_std f4 [6]
00000000: b230 2d43 cc58 1043 435d b13d 2261 b13d
00000010: 710a 213a 77cc 2b32
173.19022 144.34686 0.086603664 0.08661105 0.00061432185 1e-08

output_mean f4 [4]
00000000: d6c3 a3bd f0fd aebd 44d0 22b7 8b8f eeb6
-0.07996337 -0.085445285 -9.704443e-06 -7.1096633e-06

output_std f4 [4]
00000000: 1e88 3244 1ef0 3044 4e5e b13d 2a61 b13d
714.12683 707.75183 0.08660565 0.08661111
