experiments/gen_1/trained_models/mlp_v2_shallow_512/exports/mlp_v2_shallow_512.onnx (onnx, 2197 bytes, 5 tensors)

network.4.bias f4 [4]
-0.0024248562 -0.007093865 0.026676858 -0.030154124
00000000: 56ea 1ebb a773 e8bb 6d89 da3c c805 f7bc

input_mean f4 [6]
-0.016364127 -0.0055463696 -1.052613e-05 1.2241959e-05 5.407428e-08 8000.0
00000000: 100e 86bc 52be b5bb 6299 30b7 d062 4d37
00000010: 4d3f 6833 0000 fa45

input_std f4 [6]
173.20303 144.33273 0.086601876 0.08660406 0.0006144064 1e-08
00000000: fa33 2d43 2e55 1043 535c b13d 785d b13d
00000010: 1e10 213a 77cc 2b32

output_mean f4 [4]
-0.10090426 0.092401624 -1.0578663e-05 1.2244194e-05
00000000: e5a6 cebd 103d bd3d 037b 31b7 6a6c 4d37

output_std f4 [4]
714.14716 707.6599 0.08660386 0.086604126
00000000: 6b89 3244 3cea 3044 5d5d b13d 815d b13d
