experiments/next_generation/trained_models/mlp_v2_shallow_512_256/exports/mlp_v2_shallow_512_256.onnx (onnx, 2215 bytes, 5 tensors)

network.4.bias f4 [4]
000000 0e 3a 40 bb be f4 4a bb 72 05 e3 3c 91 e4 cc 3b
       -0.0029331478 -0.0030968632 0.027712557 0.006252833

input_mean f4 [6]
000000 50 b5 b4 bc 3c c6 a5 bc d7 29 96 b6 2a be da 36
       -0.022059113 -0.020236127 -4.475219e-06 6.5190443e-06
000010 f8 1b 98 b3 00 00 fa 45
       -7.083139e-08 8000.0

input_std f4 [6]
000000 93 33 2d 43 25 58 10 43 6e 5c b1 3d 39 60 b1 3d
       173.20146 144.34431 0.08660208 0.08660931
000010 1a 0f 21 3a 77 cc 2b 32
       0.0006143913 1e-08

output_mean f4 [4]
000000 1b 4d 6b bd 58 d0 02 3d 04 ed 93 b6 92 df da 36
       -0.05744658 0.031936973 -4.4085336e-06 6.5229333e-06

output_std f4 [4]
000000 77 88 32 44 0f ee 30 44 84 5d b1 3d 42 60 b1 3d
       714.13226 707.71967 0.08660415 0.08660938
