experiments/next_generation/trained_models/mlp_small_v1/exports/mlp_small_v1.onnx (onnx, 2159 bytes, 5 tensors)

network.4.bias f4 [4]
0	0xbbc463aa	-0.005993326
1	0xbc18fc39	-0.009337478
2	0xbba4b826	-0.005026835
3	0x3b1f7239	0.0024329557

input_mean f4 [6]
0	0xb983f0d2	-0.00025165692
1	0xbc149de9	-0.009070852
2	0xb796b064	-1.7963532e-05
3	0x369bca7d	4.6429327e-06
4	0x324c8217	1.1903942e-08
5	0x45fa0000	8000.0

input_std f4 [6]
0	0x432d3519	173.20741
1	0x4310568d	144.33809
2	0x3db15d2e	0.08660351
3	0x3db160ba	0.08661027
4	0x3a210e94	0.0006143835
5	0x322bcc77	1e-08

output_mean f4 [4]
0	0xbe137f4f	-0.14404033
1	0x3ce6343b	0.028101077
2	0xb796cb7c	-1.7976148e-05
3	0x369bf889	4.6482933e-06

output_std f4 [4]
0	0x443288cd	714.1375
1	0x4430ef17	707.7358
2	0x3db15e3b	0.08660551
3	0x3db160c3	0.08661034
