experiments/gen_1/trained_models/mlp_large_v1/exports/mlp_large_v1.onnx (onnx, 2749 bytes, 5 tensors)

network.6.bias f4 [4]
0	0xba527fcf	-0.0008029909
1	0x397e11e5	0.00024229994
2	0xbd277203	-0.040880214
3	0xbce98c0f	-0.028509168

input_mean f4 [6]
0	0xbba78edc	-0.0051134657
1	0xbd1b2ec9	-0.037886415
2	0xb75780fa	-1.2845028e-05
3	0xb5af94a3	-1.3081775e-06
4	0x331a999d	3.599563e-08
5	0x45fa0000	8000.0

input_std f4 [6]
0	0x432d3242	173.19632
1	0x43105637	144.33678
2	0x3db15ef3	0.08660688
3	0x3db15fe8	0.08660871
4	0x3a2111ca	0.00061443134
5	0x322bcc77	1e-08

output_mean f4 [4]
0	0xbddd5d43	-0.10808804
1	0xbd45f3b2	-0.04832811
2	0xb758128e	-1.2878923e-05
3	0xb5aefb6f	-1.3037187e-06

output_std f4 [4]
0	0x44328b01	714.17194
1	0x4430ee43	707.72284
2	0x3db15ff9	0.086608835
3	0x3db15ff0	0.08660877
